…
I0927 00:16:13.846413 29776 net.cpp:339] The NetState phase (0) differed from the phase (1) specified by a rule in layer accuracy_spp/top5
I0927 00:16:13.846671 29776 net.cpp:50] Initializing net from parameters: 
name: "SPPNet_6_multi"
state {
  phase: TRAIN
}
layer {
  name: "data"
  type: "Data"
  top: "data"
  top: "label"
  include {
    phase: TRAIN
  }
  transform_param {
    mirror: true
    crop_size: 112
    mean_file: "data/ilsvrc12/imagenet_mean_128.binaryproto"
  }
  data_param {
    source: "/media/christian/Barracuda1/caffe-workbench/128x128/train"
    batch_size: 128
    backend: LMDB
  }
}
layer {
  name: "conv1"
  type: "Convolution"
  bottom: "data"
  top: "conv1"
  param {
    lr_mult: 1
    decay_mult: 1
  }
  param {
    lr_mult: 2
    decay_mult: 0
  }
  convolution_param {
    num_output: 96
    kernel_size: 11
    stride: 4
    weight_filler {
      type: "gaussian"
      std: 0.01
    }
    bias_filler {
      type: "constant"
      value: 0
    }
  }
}
layer {
  name: "relu1"
  type: "ReLU"
  bottom: "conv1"
  top: "conv1"
}
layer {
  name: "norm1"
  type: "LRN"
  bottom: "conv1"
  top: "norm1"
  lrn_param {
    local_size: 5
    alpha: 0.0001
    beta: 0.75
  }
}
layer {
  name: "pool1"
  type: "Pooling"
  bottom: "norm1"
  top: "pool1"
  pooling_param {
    pool: MAX
    kernel_size: 3
    stride: 2
  }
}
layer {
  name: "conv2"
  type: "Convolution"
  bottom: "pool1"
  top: "conv2"
  param {
    lr_mult: 1
    decay_mult: 1
  }
  param {
    lr_mult: 2
    decay_mult: 0
  }
  convolution_param {
    num_output: 256
    pad: 2
    kernel_size: 5
    group: 2
    weight_filler {
      type: "gaussian"
      std: 0.01
    }
    bias_filler {
      type: "constant"
      value: 0.1
    }
  }
}
layer {
  name: "relu2"
  type: "ReLU"
  bottom: "conv2"
  top: "conv2"
}
layer {
  name: "norm2"
  type: "LRN"
  bottom: "conv2"
  top: "norm2"
  lrn_param {
    local_size: 5
    alpha: 0.0001
    beta: 0.75
  }
}
layer {
  name: "pool2"
  type: "Pooling"
  bottom: "norm2"
  top: "pool2"
  pooling_param {
    pool: MAX
    kernel_size: 3
    stride: 2
  }
}
layer {
  name: "conv3"
  type: "Convolution"
  bottom: "pool2"
  top: "conv3"
  param {
    lr_mult: 1
    decay_mult: 1
  }
  param {
    lr_mult: 2
    decay_mult: 0
  }
  convolution_param {
    num_output: 384
    pad: 1
    kernel_size: 3
    weight_filler {
      type: "gaussian"
      std: 0.01
    }
    bias_filler {
      type: "constant"
      value: 0
    }
  }
}
layer {
  name: "relu3"
  type: "ReLU"
  bottom: "conv3"
  top: "conv3"
}
layer {
  name: "conv4"
  type: "Convolution"
  bottom: "conv3"
  top: "conv4"
  param {
    lr_mult: 1
    decay_mult: 1
  }
  param {
    lr_mult: 2
    decay_mult: 0
  }
  convolution_param {
    num_output: 384
    pad: 1
    kernel_size: 3
    group: 2
    weight_filler {
      type: "gaussian"
      std: 0.01
    }
    bias_filler {
      type: "constant"
      value: 0.1
    }
  }
}
layer {
  name: "relu4"
  type: "ReLU"
  bottom: "conv4"
  top: "conv4"
}
layer {
  name: "conv5"
  type: "Convolution"
  bottom: "conv4"
  top: "conv5"
  param {
    lr_mult: 1
    decay_mult: 1
  }
  param {
    lr_mult: 2
    decay_mult: 0
  }
  convolution_param {
    num_output: 256
    pad: 1
    kernel_size: 3
    group: 2
    weight_filler {
      type: "gaussian"
      std: 0.01
    }
    bias_filler {
      type: "constant"
      value: 0.1
    }
  }
}
layer {
  name: "relu5"
  type: "ReLU"
  bottom: "conv5"
  top: "conv5"
}
layer {
  name: "spp"
  type: "SPP"
  bottom: "conv5"
  top: "spp"
  spp_param {
    pyramid_type: SPP_NET6
    pool: MAX
  }
}
layer {
  name: "fc6_spp"
  type: "InnerProduct"
  bottom: "spp"
  top: "fc6"
  param {
    lr_mult: 1
    decay_mult: 1
  }
  param {
    lr_mult: 2
    decay_mult: 0
  }
  inner_product_param {
    num_output: 4096
    weight_filler {
      type: "gaussian"
      std: 0.005
    }
    bias_filler {
      type: "constant"
      value: 0.1
    }
  }
}
layer {
  name: "relu6_spp"
  type: "ReLU"
  bottom: "fc6"
  top: "fc6"
}
layer {
  name: "drop6_spp"
  type: "Dropout"
  bottom: "fc6"
  top: "fc6"
  dropout_param {
    dropout_ratio: 0.5
  }
}
layer {
  name: "fc7_spp"
  type: "InnerProduct"
  bottom: "fc6"
  top: "fc7"
  param {
    lr_mult: 1
    decay_mult: 1
  }
  param {
    lr_mult: 2
    decay_mult: 0
  }
  inner_product_param {
    num_output: 4096
    weight_filler {
      type: "gaussian"
      std: 0.005
    }
    bias_filler {
      type: "constant"
      value: 0.1
    }
  }
}
layer {
  name: "relu7_spp"
  type: "ReLU"
  bottom: "fc7"
  top: "fc7"
}
layer {
  name: "drop7_spp"
  type: "Dropout"
  bottom: "fc7"
  top: "fc7"
  dropout_param {
    dropout_ratio: 0.5
  }
}
layer {
  name: "fc8_spp"
  type: "InnerProduct"
  bottom: "fc7"
  top: "fc8"
  param {
    lr_mult: 1
    decay_mult: 1
  }
  param {
    lr_mult: 2
    decay_mult: 0
  }
  inner_product_param {
    num_output: 1000
    weight_filler {
      type: "gaussian"
      std: 0.01
    }
    bias_filler {
      type: "constant"
      value: 0
    }
  }
}
layer {
  name: "loss_spp"
  type: "SoftmaxWithLoss"
  bottom: "fc8"
  bottom: "label"
  top: "loss"
}
I0927 00:16:13.846792 29776 layer_factory.hpp:76] Creating layer data
I0927 00:16:13.847160 29776 net.cpp:110] Creating Layer data
I0927 00:16:13.847173 29776 net.cpp:433] data -> data
I0927 00:16:13.847199 29776 net.cpp:433] data -> label
I0927 00:16:13.847211 29776 data_transformer.cpp:25] Loading mean file from: data/ilsvrc12/imagenet_mean_128.binaryproto
I0927 00:16:13.848125 29781 db_lmdb.cpp:23] Opened lmdb /media/christian/Barracuda1/caffe-workbench/128x128/train
I0927 00:16:13.861937 29776 data_layer.cpp:45] output data size: 128,3,112,112
I0927 00:16:13.902997 29776 net.cpp:155] Setting up data
I0927 00:16:13.903040 29776 net.cpp:163] Top shape: 128 3 112 112 (4816896)
I0927 00:16:13.903048 29776 net.cpp:163] Top shape: 128 (128)
I0927 00:16:13.903059 29776 layer_factory.hpp:76] Creating layer conv1
I0927 00:16:13.903079 29776 net.cpp:110] Creating Layer conv1
I0927 00:16:13.903086 29776 net.cpp:477] conv1 <- data
I0927 00:16:13.903100 29776 net.cpp:433] conv1 -> conv1
I0927 00:16:13.964282 29776 net.cpp:155] Setting up conv1
I0927 00:16:13.964337 29776 net.cpp:163] Top shape: 128 96 26 26 (8306688)
I0927 00:16:13.964364 29776 layer_factory.hpp:76] Creating layer relu1
I0927 00:16:13.964383 29776 net.cpp:110] Creating Layer relu1
I0927 00:16:13.964390 29776 net.cpp:477] relu1 <- conv1
I0927 00:16:13.964400 29776 net.cpp:419] relu1 -> conv1 (in-place)
I0927 00:16:13.964489 29776 net.cpp:155] Setting up relu1
I0927 00:16:13.964498 29776 net.cpp:163] Top shape: 128 96 26 26 (8306688)
I0927 00:16:13.964503 29776 layer_factory.hpp:76] Creating layer norm1
I0927 00:16:13.964511 29776 net.cpp:110] Creating Layer norm1
I0927 00:16:13.964515 29776 net.cpp:477] norm1 <- conv1
I0927 00:16:13.964520 29776 net.cpp:433] norm1 -> norm1
I0927 00:16:13.964531 29776 net.cpp:155] Setting up norm1
I0927 00:16:13.964537 29776 net.cpp:163] Top shape: 128 96 26 26 (8306688)
I0927 00:16:13.964541 29776 layer_factory.hpp:76] Creating layer pool1
I0927 00:16:13.964553 29776 net.cpp:110] Creating Layer pool1
I0927 00:16:13.964557 29776 net.cpp:477] pool1 <- norm1
I0927 00:16:13.964562 29776 net.cpp:433] pool1 -> pool1
I0927 00:16:13.964637 29776 net.cpp:155] Setting up pool1
I0927 00:16:13.964646 29776 net.cpp:163] Top shape: 128 96 13 13 (2076672)
I0927 00:16:13.964679 29776 layer_factory.hpp:76] Creating layer conv2
I0927 00:16:13.964694 29776 net.cpp:110] Creating Layer conv2
I0927 00:16:13.964697 29776 net.cpp:477] conv2 <- pool1
I0927 00:16:13.964704 29776 net.cpp:433] conv2 -> conv2
I0927 00:16:13.975188 29776 net.cpp:155] Setting up conv2
I0927 00:16:13.975214 29776 net.cpp:163] Top shape: 128 256 13 13 (5537792)
I0927 00:16:13.975229 29776 layer_factory.hpp:76] Creating layer relu2
I0927 00:16:13.975240 29776 net.cpp:110] Creating Layer relu2
I0927 00:16:13.975245 29776 net.cpp:477] relu2 <- conv2
I0927 00:16:13.975252 29776 net.cpp:419] relu2 -> conv2 (in-place)
I0927 00:16:13.975440 29776 net.cpp:155] Setting up relu2
I0927 00:16:13.975451 29776 net.cpp:163] Top shape: 128 256 13 13 (5537792)
I0927 00:16:13.975456 29776 layer_factory.hpp:76] Creating layer norm2
I0927 00:16:13.975466 29776 net.cpp:110] Creating Layer norm2
I0927 00:16:13.975469 29776 net.cpp:477] norm2 <- conv2
I0927 00:16:13.975476 29776 net.cpp:433] norm2 -> norm2
I0927 00:16:13.975484 29776 net.cpp:155] Setting up norm2
I0927 00:16:13.975489 29776 net.cpp:163] Top shape: 128 256 13 13 (5537792)
I0927 00:16:13.975493 29776 layer_factory.hpp:76] Creating layer pool2
I0927 00:16:13.975502 29776 net.cpp:110] Creating Layer pool2
I0927 00:16:13.975507 29776 net.cpp:477] pool2 <- norm2
I0927 00:16:13.975512 29776 net.cpp:433] pool2 -> pool2
I0927 00:16:13.975579 29776 net.cpp:155] Setting up pool2
I0927 00:16:13.975586 29776 net.cpp:163] Top shape: 128 256 6 6 (1179648)
I0927 00:16:13.975590 29776 layer_factory.hpp:76] Creating layer conv3
I0927 00:16:13.975600 29776 net.cpp:110] Creating Layer conv3
I0927 00:16:13.975603 29776 net.cpp:477] conv3 <- pool2
I0927 00:16:13.975610 29776 net.cpp:433] conv3 -> conv3
I0927 00:16:14.003820 29776 net.cpp:155] Setting up conv3
I0927 00:16:14.003859 29776 net.cpp:163] Top shape: 128 384 6 6 (1769472)
I0927 00:16:14.003878 29776 layer_factory.hpp:76] Creating layer relu3
I0927 00:16:14.003892 29776 net.cpp:110] Creating Layer relu3
I0927 00:16:14.003898 29776 net.cpp:477] relu3 <- conv3
I0927 00:16:14.003906 29776 net.cpp:419] relu3 -> conv3 (in-place)
I0927 00:16:14.003973 29776 net.cpp:155] Setting up relu3
I0927 00:16:14.003980 29776 net.cpp:163] Top shape: 128 384 6 6 (1769472)
I0927 00:16:14.003985 29776 layer_factory.hpp:76] Creating layer conv4
I0927 00:16:14.003994 29776 net.cpp:110] Creating Layer conv4
I0927 00:16:14.003998 29776 net.cpp:477] conv4 <- conv3
I0927 00:16:14.004004 29776 net.cpp:433] conv4 -> conv4
I0927 00:16:14.025202 29776 net.cpp:155] Setting up conv4
I0927 00:16:14.025233 29776 net.cpp:163] Top shape: 128 384 6 6 (1769472)
I0927 00:16:14.025246 29776 layer_factory.hpp:76] Creating layer relu4
I0927 00:16:14.025259 29776 net.cpp:110] Creating Layer relu4
I0927 00:16:14.025264 29776 net.cpp:477] relu4 <- conv4
I0927 00:16:14.025271 29776 net.cpp:419] relu4 -> conv4 (in-place)
I0927 00:16:14.025337 29776 net.cpp:155] Setting up relu4
I0927 00:16:14.025344 29776 net.cpp:163] Top shape: 128 384 6 6 (1769472)
I0927 00:16:14.025349 29776 layer_factory.hpp:76] Creating layer conv5
I0927 00:16:14.025359 29776 net.cpp:110] Creating Layer conv5
I0927 00:16:14.025363 29776 net.cpp:477] conv5 <- conv4
I0927 00:16:14.025369 29776 net.cpp:433] conv5 -> conv5
I0927 00:16:14.039996 29776 net.cpp:155] Setting up conv5
I0927 00:16:14.040030 29776 net.cpp:163] Top shape: 128 256 6 6 (1179648)
I0927 00:16:14.040047 29776 layer_factory.hpp:76] Creating layer relu5
I0927 00:16:14.040060 29776 net.cpp:110] Creating Layer relu5
I0927 00:16:14.040066 29776 net.cpp:477] relu5 <- conv5
I0927 00:16:14.040073 29776 net.cpp:419] relu5 -> conv5 (in-place)
I0927 00:16:14.040261 29776 net.cpp:155] Setting up relu5
I0927 00:16:14.040272 29776 net.cpp:163] Top shape: 128 256 6 6 (1179648)
I0927 00:16:14.040277 29776 layer_factory.hpp:76] Creating layer spp
I0927 00:16:14.040285 29776 net.cpp:110] Creating Layer spp
I0927 00:16:14.040289 29776 net.cpp:477] spp <- conv5
I0927 00:16:14.040295 29776 net.cpp:433] spp -> spp
I0927 00:16:14.040349 29776 spp_layer.cpp:27] 1,6,6,6,6,6,6
I0927 00:16:14.040367 29776 spp_layer.cpp:27] 2,6,6,3,3,3,3
I0927 00:16:14.040377 29776 spp_layer.cpp:27] 3,6,6,2,2,2,2
I0927 00:16:14.040385 29776 spp_layer.cpp:27] 6,6,6,1,1,1,1
I0927 00:16:14.040396 29776 spp_layer.cpp:27] 1,6,6,6,6,6,6
I0927 00:16:14.040407 29776 spp_layer.cpp:27] 2,6,6,3,3,3,3
I0927 00:16:14.040416 29776 spp_layer.cpp:27] 3,6,6,2,2,2,2
I0927 00:16:14.040422 29776 spp_layer.cpp:27] 6,6,6,1,1,1,1
I0927 00:16:14.040431 29776 net.cpp:155] Setting up spp
I0927 00:16:14.040436 29776 net.cpp:163] Top shape: 128 12800 (1638400)
I0927 00:16:14.040441 29776 layer_factory.hpp:76] Creating layer fc6_spp
I0927 00:16:14.040452 29776 net.cpp:110] Creating Layer fc6_spp
I0927 00:16:14.040455 29776 net.cpp:477] fc6_spp <- spp
I0927 00:16:14.040462 29776 net.cpp:433] fc6_spp -> fc6
I0927 00:16:15.680840 29776 net.cpp:155] Setting up fc6_spp
I0927 00:16:15.680876 29776 net.cpp:163] Top shape: 128 4096 (524288)
I0927 00:16:15.680891 29776 layer_factory.hpp:76] Creating layer relu6_spp
I0927 00:16:15.680903 29776 net.cpp:110] Creating Layer relu6_spp
I0927 00:16:15.680909 29776 net.cpp:477] relu6_spp <- fc6
I0927 00:16:15.680917 29776 net.cpp:419] relu6_spp -> fc6 (in-place)
I0927 00:16:15.681010 29776 net.cpp:155] Setting up relu6_spp
I0927 00:16:15.681018 29776 net.cpp:163] Top shape: 128 4096 (524288)
I0927 00:16:15.681023 29776 layer_factory.hpp:76] Creating layer drop6_spp
I0927 00:16:15.681030 29776 net.cpp:110] Creating Layer drop6_spp
I0927 00:16:15.681035 29776 net.cpp:477] drop6_spp <- fc6
I0927 00:16:15.681040 29776 net.cpp:419] drop6_spp -> fc6 (in-place)
I0927 00:16:15.681052 29776 net.cpp:155] Setting up drop6_spp
I0927 00:16:15.681058 29776 net.cpp:163] Top shape: 128 4096 (524288)
I0927 00:16:15.681062 29776 layer_factory.hpp:76] Creating layer fc7_spp
I0927 00:16:15.681071 29776 net.cpp:110] Creating Layer fc7_spp
I0927 00:16:15.681074 29776 net.cpp:477] fc7_spp <- fc6
I0927 00:16:15.681080 29776 net.cpp:433] fc7_spp -> fc7
I0927 00:16:16.208571 29776 net.cpp:155] Setting up fc7_spp
I0927 00:16:16.208606 29776 net.cpp:163] Top shape: 128 4096 (524288)
I0927 00:16:16.208618 29776 layer_factory.hpp:76] Creating layer relu7_spp
I0927 00:16:16.208632 29776 net.cpp:110] Creating Layer relu7_spp
I0927 00:16:16.208637 29776 net.cpp:477] relu7_spp <- fc7
I0927 00:16:16.208647 29776 net.cpp:419] relu7_spp -> fc7 (in-place)
I0927 00:16:16.208746 29776 net.cpp:155] Setting up relu7_spp
I0927 00:16:16.208753 29776 net.cpp:163] Top shape: 128 4096 (524288)
I0927 00:16:16.208758 29776 layer_factory.hpp:76] Creating layer drop7_spp
I0927 00:16:16.208766 29776 net.cpp:110] Creating Layer drop7_spp
I0927 00:16:16.208770 29776 net.cpp:477] drop7_spp <- fc7
I0927 00:16:16.208775 29776 net.cpp:419] drop7_spp -> fc7 (in-place)
I0927 00:16:16.208783 29776 net.cpp:155] Setting up drop7_spp
I0927 00:16:16.208788 29776 net.cpp:163] Top shape: 128 4096 (524288)
I0927 00:16:16.208792 29776 layer_factory.hpp:76] Creating layer fc8_spp
I0927 00:16:16.208801 29776 net.cpp:110] Creating Layer fc8_spp
I0927 00:16:16.208804 29776 net.cpp:477] fc8_spp <- fc7
I0927 00:16:16.208811 29776 net.cpp:433] fc8_spp -> fc8
I0927 00:16:16.339015 29776 net.cpp:155] Setting up fc8_spp
I0927 00:16:16.339047 29776 net.cpp:163] Top shape: 128 1000 (128000)
I0927 00:16:16.339061 29776 layer_factory.hpp:76] Creating layer loss_spp
I0927 00:16:16.339073 29776 net.cpp:110] Creating Layer loss_spp
I0927 00:16:16.339079 29776 net.cpp:477] loss_spp <- fc8
I0927 00:16:16.339087 29776 net.cpp:477] loss_spp <- label
I0927 00:16:16.339098 29776 net.cpp:433] loss_spp -> loss
I0927 00:16:16.339114 29776 layer_factory.hpp:76] Creating layer loss_spp
…
I0927 00:16:16.340808 29776 net.cpp:339] The NetState phase (1) differed from the phase (0) specified by a rule in layer data
I0927 00:16:16.341069 29776 net.cpp:50] Initializing net from parameters: 
name: "SPPNet_6_multi"
state {
  phase: TEST
}
layer {
  name: "data"
  type: "Data"
  top: "data"
  top: "label"
  include {
    phase: TEST
  }
  transform_param {
    mirror: false
    crop_size: 112
    mean_file: "data/ilsvrc12/imagenet_mean_128.binaryproto"
  }
  data_param {
    source: "/media/christian/Barracuda1/caffe-workbench/128x128/val"
    batch_size: 50
    backend: LMDB
  }
}
layer {
  name: "conv1"
  type: "Convolution"
  bottom: "data"
  top: "conv1"
  param {
    lr_mult: 1
    decay_mult: 1
  }
  param {
    lr_mult: 2
    decay_mult: 0
  }
  convolution_param {
    num_output: 96
    kernel_size: 11
    stride: 4
    weight_filler {
      type: "gaussian"
      std: 0.01
    }
    bias_filler {
      type: "constant"
      value: 0
    }
  }
}
layer {
  name: "relu1"
  type: "ReLU"
  bottom: "conv1"
  top: "conv1"
}
layer {
  name: "norm1"
  type: "LRN"
  bottom: "conv1"
  top: "norm1"
  lrn_param {
    local_size: 5
    alpha: 0.0001
    beta: 0.75
  }
}
layer {
  name: "pool1"
  type: "Pooling"
  bottom: "norm1"
  top: "pool1"
  pooling_param {
    pool: MAX
    kernel_size: 3
    stride: 2
  }
}
layer {
  name: "conv2"
  type: "Convolution"
  bottom: "pool1"
  top: "conv2"
  param {
    lr_mult: 1
    decay_mult: 1
  }
  param {
    lr_mult: 2
    decay_mult: 0
  }
  convolution_param {
    num_output: 256
    pad: 2
    kernel_size: 5
    group: 2
    weight_filler {
      type: "gaussian"
      std: 0.01
    }
    bias_filler {
      type: "constant"
      value: 0.1
    }
  }
}
layer {
  name: "relu2"
  type: "ReLU"
  bottom: "conv2"
  top: "conv2"
}
layer {
  name: "norm2"
  type: "LRN"
  bottom: "conv2"
  top: "norm2"
  lrn_param {
    local_size: 5
    alpha: 0.0001
    beta: 0.75
  }
}
layer {
  name: "pool2"
  type: "Pooling"
  bottom: "norm2"
  top: "pool2"
  pooling_param {
    pool: MAX
    kernel_size: 3
    stride: 2
  }
}
layer {
  name: "conv3"
  type: "Convolution"
  bottom: "pool2"
  top: "conv3"
  param {
    lr_mult: 1
    decay_mult: 1
  }
  param {
    lr_mult: 2
    decay_mult: 0
  }
  convolution_param {
    num_output: 384
    pad: 1
    kernel_size: 3
    weight_filler {
      type: "gaussian"
      std: 0.01
    }
    bias_filler {
      type: "constant"
      value: 0
    }
  }
}
layer {
  name: "relu3"
  type: "ReLU"
  bottom: "conv3"
  top: "conv3"
}
layer {
  name: "conv4"
  type: "Convolution"
  bottom: "conv3"
  top: "conv4"
  param {
    lr_mult: 1
    decay_mult: 1
  }
  param {
    lr_mult: 2
    decay_mult: 0
  }
  convolution_param {
    num_output: 384
    pad: 1
    kernel_size: 3
    group: 2
    weight_filler {
      type: "gaussian"
      std: 0.01
    }
    bias_filler {
      type: "constant"
      value: 0.1
    }
  }
}
layer {
  name: "relu4"
  type: "ReLU"
  bottom: "conv4"
  top: "conv4"
}
layer {
  name: "conv5"
  type: "Convolution"
  bottom: "conv4"
  top: "conv5"
  param {
    lr_mult: 1
    decay_mult: 1
  }
  param {
    lr_mult: 2
    decay_mult: 0
  }
  convolution_param {
    num_output: 256
    pad: 1
    kernel_size: 3
    group: 2
    weight_filler {
      type: "gaussian"
      std: 0.01
    }
    bias_filler {
      type: "constant"
      value: 0.1
    }
  }
}
layer {
  name: "relu5"
  type: "ReLU"
  bottom: "conv5"
  top: "conv5"
}
layer {
  name: "spp"
  type: "SPP"
  bottom: "conv5"
  top: "spp"
  spp_param {
    pyramid_type: SPP_NET6
    pool: MAX
  }
}
layer {
  name: "fc6_spp"
  type: "InnerProduct"
  bottom: "spp"
  top: "fc6"
  param {
    lr_mult: 1
    decay_mult: 1
  }
  param {
    lr_mult: 2
    decay_mult: 0
  }
  inner_product_param {
    num_output: 4096
    weight_filler {
      type: "gaussian"
      std: 0.005
    }
    bias_filler {
      type: "constant"
      value: 0.1
    }
  }
}
layer {
  name: "relu6_spp"
  type: "ReLU"
  bottom: "fc6"
  top: "fc6"
}
layer {
  name: "drop6_spp"
  type: "Dropout"
  bottom: "fc6"
  top: "fc6"
  dropout_param {
    dropout_ratio: 0.5
  }
}
layer {
  name: "fc7_spp"
  type: "InnerProduct"
  bottom: "fc6"
  top: "fc7"
  param {
    lr_mult: 1
    decay_mult: 1
  }
  param {
    lr_mult: 2
    decay_mult: 0
  }
  inner_product_param {
    num_output: 4096
    weight_filler {
      type: "gaussian"
      std: 0.005
    }
    bias_filler {
      type: "constant"
      value: 0.1
    }
  }
}
layer {
  name: "relu7_spp"
  type: "ReLU"
  bottom: "fc7"
  top: "fc7"
}
layer {
  name: "drop7_spp"
  type: "Dropout"
  bottom: "fc7"
  top: "fc7"
  dropout_param {
    dropout_ratio: 0.5
  }
}
layer {
  name: "fc8_spp"
  type: "InnerProduct"
  bottom: "fc7"
  top: "fc8"
  param {
    lr_mult: 1
    decay_mult: 1
  }
  param {
    lr_mult: 2
    decay_mult: 0
  }
  inner_product_param {
    num_output: 1000
    weight_filler {
      type: "gaussian"
      std: 0.01
    }
    bias_filler {
      type: "constant"
      value: 0
    }
  }
}
layer {
  name: "accuracy_spp/top1"
  type: "Accuracy"
  bottom: "fc8"
  bottom: "label"
  top: "accuracy/top1"
  include {
    phase: TEST
  }
}
layer {
  name: "accuracy_spp/top5"
  type: "Accuracy"
  bottom: "fc8"
  bottom: "label"
  top: "accuracy/top5"
  include {
    phase: TEST
  }
  accuracy_param {
    top_k: 5
  }
}
layer {
  name: "loss_spp"
  type: "SoftmaxWithLoss"
  bottom: "fc8"
  bottom: "label"
  top: "loss"
}
I0927 00:16:16.341183 29776 layer_factory.hpp:76] Creating layer data
I0927 00:16:16.341270 29776 net.cpp:110] Creating Layer data
I0927 00:16:16.341280 29776 net.cpp:433] data -> data
I0927 00:16:16.341289 29776 net.cpp:433] data -> label
I0927 00:16:16.341298 29776 data_transformer.cpp:25] Loading mean file from: data/ilsvrc12/imagenet_mean_128.binaryproto
I0927 00:16:16.342305 29792 db_lmdb.cpp:23] Opened lmdb /media/christian/Barracuda1/caffe-workbench/128x128/val
I0927 00:16:16.342386 29776 data_layer.cpp:45] output data size: 50,3,112,112
I0927 00:16:16.360426 29776 net.cpp:155] Setting up data
I0927 00:16:16.360460 29776 net.cpp:163] Top shape: 50 3 112 112 (1881600)
I0927 00:16:16.360507 29776 net.cpp:163] Top shape: 50 (50)
I0927 00:16:16.360517 29776 layer_factory.hpp:76] Creating layer label_data_1_split
I0927 00:16:16.360532 29776 net.cpp:110] Creating Layer label_data_1_split
I0927 00:16:16.360538 29776 net.cpp:477] label_data_1_split <- label
I0927 00:16:16.360545 29776 net.cpp:433] label_data_1_split -> label_data_1_split_0
I0927 00:16:16.360558 29776 net.cpp:433] label_data_1_split -> label_data_1_split_1
I0927 00:16:16.360570 29776 net.cpp:433] label_data_1_split -> label_data_1_split_2
I0927 00:16:16.360584 29776 net.cpp:155] Setting up label_data_1_split
I0927 00:16:16.360590 29776 net.cpp:163] Top shape: 50 (50)
I0927 00:16:16.360594 29776 net.cpp:163] Top shape: 50 (50)
I0927 00:16:16.360599 29776 net.cpp:163] Top shape: 50 (50)
I0927 00:16:16.360604 29776 layer_factory.hpp:76] Creating layer conv1
I0927 00:16:16.360616 29776 net.cpp:110] Creating Layer conv1
I0927 00:16:16.360625 29776 net.cpp:477] conv1 <- data
I0927 00:16:16.360636 29776 net.cpp:433] conv1 -> conv1
I0927 00:16:16.362700 29776 net.cpp:155] Setting up conv1
I0927 00:16:16.362717 29776 net.cpp:163] Top shape: 50 96 26 26 (3244800)
I0927 00:16:16.362737 29776 layer_factory.hpp:76] Creating layer relu1
I0927 00:16:16.362750 29776 net.cpp:110] Creating Layer relu1
I0927 00:16:16.362756 29776 net.cpp:477] relu1 <- conv1
I0927 00:16:16.362766 29776 net.cpp:419] relu1 -> conv1 (in-place)
I0927 00:16:16.362989 29776 net.cpp:155] Setting up relu1
I0927 00:16:16.363005 29776 net.cpp:163] Top shape: 50 96 26 26 (3244800)
I0927 00:16:16.363014 29776 layer_factory.hpp:76] Creating layer norm1
I0927 00:16:16.363029 29776 net.cpp:110] Creating Layer norm1
I0927 00:16:16.363035 29776 net.cpp:477] norm1 <- conv1
I0927 00:16:16.363044 29776 net.cpp:433] norm1 -> norm1
I0927 00:16:16.363055 29776 net.cpp:155] Setting up norm1
I0927 00:16:16.363061 29776 net.cpp:163] Top shape: 50 96 26 26 (3244800)
I0927 00:16:16.363066 29776 layer_factory.hpp:76] Creating layer pool1
I0927 00:16:16.363077 29776 net.cpp:110] Creating Layer pool1
I0927 00:16:16.363086 29776 net.cpp:477] pool1 <- norm1
I0927 00:16:16.363097 29776 net.cpp:433] pool1 -> pool1
I0927 00:16:16.363181 29776 net.cpp:155] Setting up pool1
I0927 00:16:16.363193 29776 net.cpp:163] Top shape: 50 96 13 13 (811200)
I0927 00:16:16.363198 29776 layer_factory.hpp:76] Creating layer conv2
I0927 00:16:16.363209 29776 net.cpp:110] Creating Layer conv2
I0927 00:16:16.363217 29776 net.cpp:477] conv2 <- pool1
I0927 00:16:16.363229 29776 net.cpp:433] conv2 -> conv2
I0927 00:16:16.374191 29776 net.cpp:155] Setting up conv2
I0927 00:16:16.374239 29776 net.cpp:163] Top shape: 50 256 13 13 (2163200)
I0927 00:16:16.374266 29776 layer_factory.hpp:76] Creating layer relu2
I0927 00:16:16.374289 29776 net.cpp:110] Creating Layer relu2
I0927 00:16:16.374299 29776 net.cpp:477] relu2 <- conv2
I0927 00:16:16.374310 29776 net.cpp:419] relu2 -> conv2 (in-place)
I0927 00:16:16.374394 29776 net.cpp:155] Setting up relu2
I0927 00:16:16.374403 29776 net.cpp:163] Top shape: 50 256 13 13 (2163200)
I0927 00:16:16.374408 29776 layer_factory.hpp:76] Creating layer norm2
I0927 00:16:16.374423 29776 net.cpp:110] Creating Layer norm2
I0927 00:16:16.374433 29776 net.cpp:477] norm2 <- conv2
I0927 00:16:16.374444 29776 net.cpp:433] norm2 -> norm2
I0927 00:16:16.374459 29776 net.cpp:155] Setting up norm2
I0927 00:16:16.374469 29776 net.cpp:163] Top shape: 50 256 13 13 (2163200)
I0927 00:16:16.374476 29776 layer_factory.hpp:76] Creating layer pool2
I0927 00:16:16.374486 29776 net.cpp:110] Creating Layer pool2
I0927 00:16:16.374495 29776 net.cpp:477] pool2 <- norm2
I0927 00:16:16.374500 29776 net.cpp:433] pool2 -> pool2
I0927 00:16:16.374754 29776 net.cpp:155] Setting up pool2
I0927 00:16:16.374769 29776 net.cpp:163] Top shape: 50 256 6 6 (460800)
I0927 00:16:16.374778 29776 layer_factory.hpp:76] Creating layer conv3
I0927 00:16:16.374793 29776 net.cpp:110] Creating Layer conv3
I0927 00:16:16.374799 29776 net.cpp:477] conv3 <- pool2
I0927 00:16:16.374810 29776 net.cpp:433] conv3 -> conv3
I0927 00:16:16.403753 29776 net.cpp:155] Setting up conv3
I0927 00:16:16.403817 29776 net.cpp:163] Top shape: 50 384 6 6 (691200)
I0927 00:16:16.403842 29776 layer_factory.hpp:76] Creating layer relu3
I0927 00:16:16.403858 29776 net.cpp:110] Creating Layer relu3
I0927 00:16:16.403864 29776 net.cpp:477] relu3 <- conv3
I0927 00:16:16.403872 29776 net.cpp:419] relu3 -> conv3 (in-place)
I0927 00:16:16.403956 29776 net.cpp:155] Setting up relu3
I0927 00:16:16.403970 29776 net.cpp:163] Top shape: 50 384 6 6 (691200)
I0927 00:16:16.403978 29776 layer_factory.hpp:76] Creating layer conv4
I0927 00:16:16.403991 29776 net.cpp:110] Creating Layer conv4
I0927 00:16:16.403995 29776 net.cpp:477] conv4 <- conv3
I0927 00:16:16.404003 29776 net.cpp:433] conv4 -> conv4
I0927 00:16:16.425443 29776 net.cpp:155] Setting up conv4
I0927 00:16:16.425480 29776 net.cpp:163] Top shape: 50 384 6 6 (691200)
I0927 00:16:16.425498 29776 layer_factory.hpp:76] Creating layer relu4
I0927 00:16:16.425516 29776 net.cpp:110] Creating Layer relu4
I0927 00:16:16.425524 29776 net.cpp:477] relu4 <- conv4
I0927 00:16:16.425532 29776 net.cpp:419] relu4 -> conv4 (in-place)
I0927 00:16:16.425611 29776 net.cpp:155] Setting up relu4
I0927 00:16:16.425619 29776 net.cpp:163] Top shape: 50 384 6 6 (691200)
I0927 00:16:16.425624 29776 layer_factory.hpp:76] Creating layer conv5
I0927 00:16:16.425634 29776 net.cpp:110] Creating Layer conv5
I0927 00:16:16.425638 29776 net.cpp:477] conv5 <- conv4
I0927 00:16:16.425644 29776 net.cpp:433] conv5 -> conv5
I0927 00:16:16.441933 29776 net.cpp:155] Setting up conv5
I0927 00:16:16.441968 29776 net.cpp:163] Top shape: 50 256 6 6 (460800)
I0927 00:16:16.441998 29776 layer_factory.hpp:76] Creating layer relu5
I0927 00:16:16.442015 29776 net.cpp:110] Creating Layer relu5
I0927 00:16:16.442021 29776 net.cpp:477] relu5 <- conv5
I0927 00:16:16.442029 29776 net.cpp:419] relu5 -> conv5 (in-place)
I0927 00:16:16.442126 29776 net.cpp:155] Setting up relu5
I0927 00:16:16.442139 29776 net.cpp:163] Top shape: 50 256 6 6 (460800)
I0927 00:16:16.442148 29776 layer_factory.hpp:76] Creating layer spp
I0927 00:16:16.442167 29776 net.cpp:110] Creating Layer spp
I0927 00:16:16.442173 29776 net.cpp:477] spp <- conv5
I0927 00:16:16.442185 29776 net.cpp:433] spp -> spp
I0927 00:16:16.442205 29776 spp_layer.cpp:27] 1,6,6,6,6,6,6
I0927 00:16:16.442234 29776 spp_layer.cpp:27] 2,6,6,3,3,3,3
I0927 00:16:16.442248 29776 spp_layer.cpp:27] 3,6,6,2,2,2,2
I0927 00:16:16.442265 29776 spp_layer.cpp:27] 6,6,6,1,1,1,1
I0927 00:16:16.442288 29776 spp_layer.cpp:27] 1,6,6,6,6,6,6
I0927 00:16:16.442303 29776 spp_layer.cpp:27] 2,6,6,3,3,3,3
I0927 00:16:16.442313 29776 spp_layer.cpp:27] 3,6,6,2,2,2,2
I0927 00:16:16.442327 29776 spp_layer.cpp:27] 6,6,6,1,1,1,1
I0927 00:16:16.442340 29776 net.cpp:155] Setting up spp
I0927 00:16:16.442350 29776 net.cpp:163] Top shape: 50 12800 (640000)
I0927 00:16:16.442358 29776 layer_factory.hpp:76] Creating layer fc6_spp
I0927 00:16:16.442371 29776 net.cpp:110] Creating Layer fc6_spp
I0927 00:16:16.442376 29776 net.cpp:477] fc6_spp <- spp
I0927 00:16:16.442389 29776 net.cpp:433] fc6_spp -> fc6
I0927 00:16:18.099854 29776 net.cpp:155] Setting up fc6_spp
I0927 00:16:18.099899 29776 net.cpp:163] Top shape: 50 4096 (204800)
I0927 00:16:18.099918 29776 layer_factory.hpp:76] Creating layer relu6_spp
I0927 00:16:18.099939 29776 net.cpp:110] Creating Layer relu6_spp
I0927 00:16:18.099949 29776 net.cpp:477] relu6_spp <- fc6
I0927 00:16:18.099958 29776 net.cpp:419] relu6_spp -> fc6 (in-place)
I0927 00:16:18.100292 29776 net.cpp:155] Setting up relu6_spp
I0927 00:16:18.100306 29776 net.cpp:163] Top shape: 50 4096 (204800)
I0927 00:16:18.100316 29776 layer_factory.hpp:76] Creating layer drop6_spp
I0927 00:16:18.100327 29776 net.cpp:110] Creating Layer drop6_spp
I0927 00:16:18.100337 29776 net.cpp:477] drop6_spp <- fc6
I0927 00:16:18.100347 29776 net.cpp:419] drop6_spp -> fc6 (in-place)
I0927 00:16:18.100359 29776 net.cpp:155] Setting up drop6_spp
I0927 00:16:18.100369 29776 net.cpp:163] Top shape: 50 4096 (204800)
I0927 00:16:18.100376 29776 layer_factory.hpp:76] Creating layer fc7_spp
I0927 00:16:18.100419 29776 net.cpp:110] Creating Layer fc7_spp
I0927 00:16:18.100427 29776 net.cpp:477] fc7_spp <- fc6
I0927 00:16:18.100441 29776 net.cpp:433] fc7_spp -> fc7
I0927 00:16:18.629727 29776 net.cpp:155] Setting up fc7_spp
I0927 00:16:18.629767 29776 net.cpp:163] Top shape: 50 4096 (204800)
I0927 00:16:18.629786 29776 layer_factory.hpp:76] Creating layer relu7_spp
I0927 00:16:18.629803 29776 net.cpp:110] Creating Layer relu7_spp
I0927 00:16:18.629813 29776 net.cpp:477] relu7_spp <- fc7
I0927 00:16:18.629824 29776 net.cpp:419] relu7_spp -> fc7 (in-place)
I0927 00:16:18.629956 29776 net.cpp:155] Setting up relu7_spp
I0927 00:16:18.629966 29776 net.cpp:163] Top shape: 50 4096 (204800)
I0927 00:16:18.629974 29776 layer_factory.hpp:76] Creating layer drop7_spp
I0927 00:16:18.629987 29776 net.cpp:110] Creating Layer drop7_spp
I0927 00:16:18.629994 29776 net.cpp:477] drop7_spp <- fc7
I0927 00:16:18.630010 29776 net.cpp:419] drop7_spp -> fc7 (in-place)
I0927 00:16:18.630023 29776 net.cpp:155] Setting up drop7_spp
I0927 00:16:18.630033 29776 net.cpp:163] Top shape: 50 4096 (204800)
I0927 00:16:18.630040 29776 layer_factory.hpp:76] Creating layer fc8_spp
I0927 00:16:18.630053 29776 net.cpp:110] Creating Layer fc8_spp
I0927 00:16:18.630060 29776 net.cpp:477] fc8_spp <- fc7
I0927 00:16:18.630071 29776 net.cpp:433] fc8_spp -> fc8
I0927 00:16:18.757637 29776 net.cpp:155] Setting up fc8_spp
I0927 00:16:18.757673 29776 net.cpp:163] Top shape: 50 1000 (50000)
I0927 00:16:18.757690 29776 layer_factory.hpp:76] Creating layer fc8_fc8_spp_0_split
I0927 00:16:18.757712 29776 net.cpp:110] Creating Layer fc8_fc8_spp_0_split
I0927 00:16:18.757721 29776 net.cpp:477] fc8_fc8_spp_0_split <- fc8
I0927 00:16:18.757730 29776 net.cpp:433] fc8_fc8_spp_0_split -> fc8_fc8_spp_0_split_0
I0927 00:16:18.757741 29776 net.cpp:433] fc8_fc8_spp_0_split -> fc8_fc8_spp_0_split_1
I0927 00:16:18.757752 29776 net.cpp:433] fc8_fc8_spp_0_split -> fc8_fc8_spp_0_split_2
I0927 00:16:18.757766 29776 net.cpp:155] Setting up fc8_fc8_spp_0_split
I0927 00:16:18.757771 29776 net.cpp:163] Top shape: 50 1000 (50000)
I0927 00:16:18.757776 29776 net.cpp:163] Top shape: 50 1000 (50000)
I0927 00:16:18.757779 29776 net.cpp:163] Top shape: 50 1000 (50000)
I0927 00:16:18.757783 29776 layer_factory.hpp:76] Creating layer accuracy_spp/top1
I0927 00:16:18.757792 29776 net.cpp:110] Creating Layer accuracy_spp/top1
I0927 00:16:18.757799 29776 net.cpp:477] accuracy_spp/top1 <- fc8_fc8_spp_0_split_0
I0927 00:16:18.757808 29776 net.cpp:477] accuracy_spp/top1 <- label_data_1_split_0
I0927 00:16:18.757817 29776 net.cpp:433] accuracy_spp/top1 -> accuracy/top1
…
