…
I0926 00:36:14.512465  7201 net.cpp:339] The NetState phase (0) differed from the phase (1) specified by a rule in layer accuracy_spp/top5
I0926 00:36:14.512732  7201 net.cpp:50] Initializing net from parameters: 
name: "SPPNet_6_single"
state {
  phase: TRAIN
}
layer {
  name: "data"
  type: "Data"
  top: "data"
  top: "label"
  include {
    phase: TRAIN
  }
  transform_param {
    mirror: true
    crop_size: 224
    mean_file: "data/ilsvrc12/imagenet_mean.binaryproto"
  }
  data_param {
    source: "/media/christian/ImageNet/ImageNet/ilsvrc12_train_lmdb"
    batch_size: 128
    backend: LMDB
  }
}
layer {
  name: "conv1"
  type: "Convolution"
  bottom: "data"
  top: "conv1"
  param {
    lr_mult: 1
    decay_mult: 1
  }
  param {
    lr_mult: 2
    decay_mult: 0
  }
  convolution_param {
    num_output: 96
    kernel_size: 11
    stride: 4
    weight_filler {
      type: "gaussian"
      std: 0.01
    }
    bias_filler {
      type: "constant"
      value: 0
    }
  }
}
layer {
  name: "relu1"
  type: "ReLU"
  bottom: "conv1"
  top: "conv1"
}
layer {
  name: "norm1"
  type: "LRN"
  bottom: "conv1"
  top: "norm1"
  lrn_param {
    local_size: 5
    alpha: 0.0001
    beta: 0.75
  }
}
layer {
  name: "pool1"
  type: "Pooling"
  bottom: "norm1"
  top: "pool1"
  pooling_param {
    pool: MAX
    kernel_size: 3
    stride: 2
  }
}
layer {
  name: "conv2"
  type: "Convolution"
  bottom: "pool1"
  top: "conv2"
  param {
    lr_mult: 1
    decay_mult: 1
  }
  param {
    lr_mult: 2
    decay_mult: 0
  }
  convolution_param {
    num_output: 256
    pad: 2
    kernel_size: 5
    group: 2
    weight_filler {
      type: "gaussian"
      std: 0.01
    }
    bias_filler {
      type: "constant"
      value: 0.1
    }
  }
}
layer {
  name: "relu2"
  type: "ReLU"
  bottom: "conv2"
  top: "conv2"
}
layer {
  name: "norm2"
  type: "LRN"
  bottom: "conv2"
  top: "norm2"
  lrn_param {
    local_size: 5
    alpha: 0.0001
    beta: 0.75
  }
}
layer {
  name: "pool2"
  type: "Pooling"
  bottom: "norm2"
  top: "pool2"
  pooling_param {
    pool: MAX
    kernel_size: 3
    stride: 2
  }
}
layer {
  name: "conv3"
  type: "Convolution"
  bottom: "pool2"
  top: "conv3"
  param {
    lr_mult: 1
    decay_mult: 1
  }
  param {
    lr_mult: 2
    decay_mult: 0
  }
  convolution_param {
    num_output: 384
    pad: 1
    kernel_size: 3
    weight_filler {
      type: "gaussian"
      std: 0.01
    }
    bias_filler {
      type: "constant"
      value: 0
    }
  }
}
layer {
  name: "relu3"
  type: "ReLU"
  bottom: "conv3"
  top: "conv3"
}
layer {
  name: "conv4"
  type: "Convolution"
  bottom: "conv3"
  top: "conv4"
  param {
    lr_mult: 1
    decay_mult: 1
  }
  param {
    lr_mult: 2
    decay_mult: 0
  }
  convolution_param {
    num_output: 384
    pad: 1
    kernel_size: 3
    group: 2
    weight_filler {
      type: "gaussian"
      std: 0.01
    }
    bias_filler {
      type: "constant"
      value: 0.1
    }
  }
}
layer {
  name: "relu4"
  type: "ReLU"
  bottom: "conv4"
  top: "conv4"
}
layer {
  name: "conv5"
  type: "Convolution"
  bottom: "conv4"
  top: "conv5"
  param {
    lr_mult: 1
    decay_mult: 1
  }
  param {
    lr_mult: 2
    decay_mult: 0
  }
  convolution_param {
    num_output: 256
    pad: 1
    kernel_size: 3
    group: 2
    weight_filler {
      type: "gaussian"
      std: 0.01
    }
    bias_filler {
      type: "constant"
      value: 0.1
    }
  }
}
layer {
  name: "relu5"
  type: "ReLU"
  bottom: "conv5"
  top: "conv5"
}
layer {
  name: "spp"
  type: "SPP"
  bottom: "conv5"
  top: "spp"
  spp_param {
    pyramid_type: SPP_NET6
    pool: MAX
  }
}
layer {
  name: "fc6_spp"
  type: "InnerProduct"
  bottom: "spp"
  top: "fc6"
  param {
    lr_mult: 1
    decay_mult: 1
  }
  param {
    lr_mult: 2
    decay_mult: 0
  }
  inner_product_param {
    num_output: 4096
    weight_filler {
      type: "gaussian"
      std: 0.005
    }
    bias_filler {
      type: "constant"
      value: 0.1
    }
  }
}
layer {
  name: "relu6_spp"
  type: "ReLU"
  bottom: "fc6"
  top: "fc6"
}
layer {
  name: "drop6_spp"
  type: "Dropout"
  bottom: "fc6"
  top: "fc6"
  dropout_param {
    dropout_ratio: 0.5
  }
}
layer {
  name: "fc7_spp"
  type: "InnerProduct"
  bottom: "fc6"
  top: "fc7"
  param {
    lr_mult: 1
    decay_mult: 1
  }
  param {
    lr_mult: 2
    decay_mult: 0
  }
  inner_product_param {
    num_output: 4096
    weight_filler {
      type: "gaussian"
      std: 0.005
    }
    bias_filler {
      type: "constant"
      value: 0.1
    }
  }
}
layer {
  name: "relu7_spp"
  type: "ReLU"
  bottom: "fc7"
  top: "fc7"
}
layer {
  name: "drop7_spp"
  type: "Dropout"
  bottom: "fc7"
  top: "fc7"
  dropout_param {
    dropout_ratio: 0.5
  }
}
layer {
  name: "fc8_spp"
  type: "InnerProduct"
  bottom: "fc7"
  top: "fc8"
  param {
    lr_mult: 1
    decay_mult: 1
  }
  param {
    lr_mult: 2
    decay_mult: 0
  }
  inner_product_param {
    num_output: 1000
    weight_filler {
      type: "gaussian"
      std: 0.01
    }
    bias_filler {
      type: "constant"
      value: 0
    }
  }
}
layer {
  name: "loss_spp"
  type: "SoftmaxWithLoss"
  bottom: "fc8"
  bottom: "label"
  top: "loss"
}
I0926 00:36:14.512864  7201 layer_factory.hpp:76] Creating layer data
I0926 00:36:14.513243  7201 net.cpp:110] Creating Layer data
I0926 00:36:14.513269  7201 net.cpp:433] data -> data
I0926 00:36:14.513295  7201 net.cpp:433] data -> label
I0926 00:36:14.513308  7201 data_transformer.cpp:25] Loading mean file from: data/ilsvrc12/imagenet_mean.binaryproto
I0926 00:36:14.514292  7206 db_lmdb.cpp:23] Opened lmdb /media/christian/ImageNet/ImageNet/ilsvrc12_train_lmdb
I0926 00:36:14.528879  7201 data_layer.cpp:45] output data size: 128,3,224,224
I0926 00:36:14.680032  7201 net.cpp:155] Setting up data
I0926 00:36:14.680071  7201 net.cpp:163] Top shape: 128 3 224 224 (19267584)
I0926 00:36:14.680078  7201 net.cpp:163] Top shape: 128 (128)
I0926 00:36:14.680089  7201 layer_factory.hpp:76] Creating layer conv1
I0926 00:36:14.680107  7201 net.cpp:110] Creating Layer conv1
I0926 00:36:14.680114  7201 net.cpp:477] conv1 <- data
I0926 00:36:14.680129  7201 net.cpp:433] conv1 -> conv1
I0926 00:36:14.741156  7201 net.cpp:155] Setting up conv1
I0926 00:36:14.741189  7201 net.cpp:163] Top shape: 128 96 54 54 (35831808)
I0926 00:36:14.741211  7201 layer_factory.hpp:76] Creating layer relu1
I0926 00:36:14.741237  7201 net.cpp:110] Creating Layer relu1
I0926 00:36:14.741245  7201 net.cpp:477] relu1 <- conv1
I0926 00:36:14.741255  7201 net.cpp:419] relu1 -> conv1 (in-place)
I0926 00:36:14.741353  7201 net.cpp:155] Setting up relu1
I0926 00:36:14.741361  7201 net.cpp:163] Top shape: 128 96 54 54 (35831808)
I0926 00:36:14.741365  7201 layer_factory.hpp:76] Creating layer norm1
I0926 00:36:14.741380  7201 net.cpp:110] Creating Layer norm1
I0926 00:36:14.741385  7201 net.cpp:477] norm1 <- conv1
I0926 00:36:14.741390  7201 net.cpp:433] norm1 -> norm1
I0926 00:36:14.741402  7201 net.cpp:155] Setting up norm1
I0926 00:36:14.741407  7201 net.cpp:163] Top shape: 128 96 54 54 (35831808)
I0926 00:36:14.741411  7201 layer_factory.hpp:76] Creating layer pool1
I0926 00:36:14.741425  7201 net.cpp:110] Creating Layer pool1
I0926 00:36:14.741430  7201 net.cpp:477] pool1 <- norm1
I0926 00:36:14.741435  7201 net.cpp:433] pool1 -> pool1
I0926 00:36:14.741513  7201 net.cpp:155] Setting up pool1
I0926 00:36:14.741523  7201 net.cpp:163] Top shape: 128 96 27 27 (8957952)
I0926 00:36:14.741561  7201 layer_factory.hpp:76] Creating layer conv2
I0926 00:36:14.741575  7201 net.cpp:110] Creating Layer conv2
I0926 00:36:14.741580  7201 net.cpp:477] conv2 <- pool1
I0926 00:36:14.741586  7201 net.cpp:433] conv2 -> conv2
I0926 00:36:14.752374  7201 net.cpp:155] Setting up conv2
I0926 00:36:14.752413  7201 net.cpp:163] Top shape: 128 256 27 27 (23887872)
I0926 00:36:14.752437  7201 layer_factory.hpp:76] Creating layer relu2
I0926 00:36:14.752454  7201 net.cpp:110] Creating Layer relu2
I0926 00:36:14.752461  7201 net.cpp:477] relu2 <- conv2
I0926 00:36:14.752467  7201 net.cpp:419] relu2 -> conv2 (in-place)
I0926 00:36:14.752710  7201 net.cpp:155] Setting up relu2
I0926 00:36:14.752720  7201 net.cpp:163] Top shape: 128 256 27 27 (23887872)
I0926 00:36:14.752725  7201 layer_factory.hpp:76] Creating layer norm2
I0926 00:36:14.752733  7201 net.cpp:110] Creating Layer norm2
I0926 00:36:14.752738  7201 net.cpp:477] norm2 <- conv2
I0926 00:36:14.752743  7201 net.cpp:433] norm2 -> norm2
I0926 00:36:14.752753  7201 net.cpp:155] Setting up norm2
I0926 00:36:14.752758  7201 net.cpp:163] Top shape: 128 256 27 27 (23887872)
I0926 00:36:14.752761  7201 layer_factory.hpp:76] Creating layer pool2
I0926 00:36:14.752770  7201 net.cpp:110] Creating Layer pool2
I0926 00:36:14.752774  7201 net.cpp:477] pool2 <- norm2
I0926 00:36:14.752779  7201 net.cpp:433] pool2 -> pool2
I0926 00:36:14.752846  7201 net.cpp:155] Setting up pool2
I0926 00:36:14.752852  7201 net.cpp:163] Top shape: 128 256 13 13 (5537792)
I0926 00:36:14.752857  7201 layer_factory.hpp:76] Creating layer conv3
I0926 00:36:14.752867  7201 net.cpp:110] Creating Layer conv3
I0926 00:36:14.752871  7201 net.cpp:477] conv3 <- pool2
I0926 00:36:14.752877  7201 net.cpp:433] conv3 -> conv3
I0926 00:36:14.782130  7201 net.cpp:155] Setting up conv3
I0926 00:36:14.782172  7201 net.cpp:163] Top shape: 128 384 13 13 (8306688)
I0926 00:36:14.782202  7201 layer_factory.hpp:76] Creating layer relu3
I0926 00:36:14.782219  7201 net.cpp:110] Creating Layer relu3
I0926 00:36:14.782225  7201 net.cpp:477] relu3 <- conv3
I0926 00:36:14.782233  7201 net.cpp:419] relu3 -> conv3 (in-place)
I0926 00:36:14.782304  7201 net.cpp:155] Setting up relu3
I0926 00:36:14.782312  7201 net.cpp:163] Top shape: 128 384 13 13 (8306688)
I0926 00:36:14.782316  7201 layer_factory.hpp:76] Creating layer conv4
I0926 00:36:14.782335  7201 net.cpp:110] Creating Layer conv4
I0926 00:36:14.782340  7201 net.cpp:477] conv4 <- conv3
I0926 00:36:14.782346  7201 net.cpp:433] conv4 -> conv4
I0926 00:36:14.805619  7201 net.cpp:155] Setting up conv4
I0926 00:36:14.805655  7201 net.cpp:163] Top shape: 128 384 13 13 (8306688)
I0926 00:36:14.805670  7201 layer_factory.hpp:76] Creating layer relu4
I0926 00:36:14.805685  7201 net.cpp:110] Creating Layer relu4
I0926 00:36:14.805691  7201 net.cpp:477] relu4 <- conv4
I0926 00:36:14.805698  7201 net.cpp:419] relu4 -> conv4 (in-place)
I0926 00:36:14.805766  7201 net.cpp:155] Setting up relu4
I0926 00:36:14.805773  7201 net.cpp:163] Top shape: 128 384 13 13 (8306688)
I0926 00:36:14.805778  7201 layer_factory.hpp:76] Creating layer conv5
I0926 00:36:14.805789  7201 net.cpp:110] Creating Layer conv5
I0926 00:36:14.805794  7201 net.cpp:477] conv5 <- conv4
I0926 00:36:14.805800  7201 net.cpp:433] conv5 -> conv5
I0926 00:36:14.820770  7201 net.cpp:155] Setting up conv5
I0926 00:36:14.820821  7201 net.cpp:163] Top shape: 128 256 13 13 (5537792)
I0926 00:36:14.820844  7201 layer_factory.hpp:76] Creating layer relu5
I0926 00:36:14.820863  7201 net.cpp:110] Creating Layer relu5
I0926 00:36:14.820869  7201 net.cpp:477] relu5 <- conv5
I0926 00:36:14.820878  7201 net.cpp:419] relu5 -> conv5 (in-place)
I0926 00:36:14.821082  7201 net.cpp:155] Setting up relu5
I0926 00:36:14.821095  7201 net.cpp:163] Top shape: 128 256 13 13 (5537792)
I0926 00:36:14.821100  7201 layer_factory.hpp:76] Creating layer spp
I0926 00:36:14.821108  7201 net.cpp:110] Creating Layer spp
I0926 00:36:14.821112  7201 net.cpp:477] spp <- conv5
I0926 00:36:14.821118  7201 net.cpp:433] spp -> spp
I0926 00:36:14.821240  7201 net.cpp:155] Setting up spp
I0926 00:36:14.821249  7201 net.cpp:163] Top shape: 128 12800 (1638400)
I0926 00:36:14.821252  7201 layer_factory.hpp:76] Creating layer fc6_spp
I0926 00:36:14.821267  7201 net.cpp:110] Creating Layer fc6_spp
I0926 00:36:14.821274  7201 net.cpp:477] fc6_spp <- spp
I0926 00:36:14.821280  7201 net.cpp:433] fc6_spp -> fc6
I0926 00:36:16.477499  7201 net.cpp:155] Setting up fc6_spp
I0926 00:36:16.477538  7201 net.cpp:163] Top shape: 128 4096 (524288)
I0926 00:36:16.477551  7201 layer_factory.hpp:76] Creating layer relu6_spp
I0926 00:36:16.477563  7201 net.cpp:110] Creating Layer relu6_spp
I0926 00:36:16.477568  7201 net.cpp:477] relu6_spp <- fc6
I0926 00:36:16.477576  7201 net.cpp:419] relu6_spp -> fc6 (in-place)
I0926 00:36:16.477671  7201 net.cpp:155] Setting up relu6_spp
I0926 00:36:16.477679  7201 net.cpp:163] Top shape: 128 4096 (524288)
I0926 00:36:16.477682  7201 layer_factory.hpp:76] Creating layer drop6_spp
I0926 00:36:16.477692  7201 net.cpp:110] Creating Layer drop6_spp
I0926 00:36:16.477696  7201 net.cpp:477] drop6_spp <- fc6
I0926 00:36:16.477701  7201 net.cpp:419] drop6_spp -> fc6 (in-place)
I0926 00:36:16.477716  7201 net.cpp:155] Setting up drop6_spp
I0926 00:36:16.477721  7201 net.cpp:163] Top shape: 128 4096 (524288)
I0926 00:36:16.477725  7201 layer_factory.hpp:76] Creating layer fc7_spp
I0926 00:36:16.477735  7201 net.cpp:110] Creating Layer fc7_spp
I0926 00:36:16.477738  7201 net.cpp:477] fc7_spp <- fc6
I0926 00:36:16.477744  7201 net.cpp:433] fc7_spp -> fc7
I0926 00:36:16.998742  7201 net.cpp:155] Setting up fc7_spp
I0926 00:36:16.998777  7201 net.cpp:163] Top shape: 128 4096 (524288)
I0926 00:36:16.998790  7201 layer_factory.hpp:76] Creating layer relu7_spp
I0926 00:36:16.998802  7201 net.cpp:110] Creating Layer relu7_spp
I0926 00:36:16.998807  7201 net.cpp:477] relu7_spp <- fc7
I0926 00:36:16.998816  7201 net.cpp:419] relu7_spp -> fc7 (in-place)
I0926 00:36:16.998913  7201 net.cpp:155] Setting up relu7_spp
I0926 00:36:16.998919  7201 net.cpp:163] Top shape: 128 4096 (524288)
I0926 00:36:16.998924  7201 layer_factory.hpp:76] Creating layer drop7_spp
I0926 00:36:16.998934  7201 net.cpp:110] Creating Layer drop7_spp
I0926 00:36:16.998937  7201 net.cpp:477] drop7_spp <- fc7
I0926 00:36:16.998942  7201 net.cpp:419] drop7_spp -> fc7 (in-place)
I0926 00:36:16.998951  7201 net.cpp:155] Setting up drop7_spp
I0926 00:36:16.998956  7201 net.cpp:163] Top shape: 128 4096 (524288)
I0926 00:36:16.998960  7201 layer_factory.hpp:76] Creating layer fc8_spp
I0926 00:36:16.998970  7201 net.cpp:110] Creating Layer fc8_spp
I0926 00:36:16.998973  7201 net.cpp:477] fc8_spp <- fc7
I0926 00:36:16.998980  7201 net.cpp:433] fc8_spp -> fc8
I0926 00:36:17.127517  7201 net.cpp:155] Setting up fc8_spp
I0926 00:36:17.127557  7201 net.cpp:163] Top shape: 128 1000 (128000)
I0926 00:36:17.127568  7201 layer_factory.hpp:76] Creating layer loss_spp
I0926 00:36:17.127580  7201 net.cpp:110] Creating Layer loss_spp
I0926 00:36:17.127585  7201 net.cpp:477] loss_spp <- fc8
I0926 00:36:17.127593  7201 net.cpp:477] loss_spp <- label
I0926 00:36:17.127604  7201 net.cpp:433] loss_spp -> loss
I0926 00:36:17.127620  7201 layer_factory.hpp:76] Creating layer loss_spp
…
I0926 00:36:17.129501  7201 net.cpp:339] The NetState phase (1) differed from the phase (0) specified by a rule in layer data
I0926 00:36:17.129765  7201 net.cpp:50] Initializing net from parameters: 
name: "SPPNet_6_single"
state {
  phase: TEST
}
layer {
  name: "data"
  type: "Data"
  top: "data"
  top: "label"
  include {
    phase: TEST
  }
  transform_param {
    mirror: false
    crop_size: 224
    mean_file: "data/ilsvrc12/imagenet_mean.binaryproto"
  }
  data_param {
    source: "/media/christian/ImageNet/ImageNet/ilsvrc12_val_lmdb"
    batch_size: 50
    backend: LMDB
  }
}
layer {
  name: "conv1"
  type: "Convolution"
  bottom: "data"
  top: "conv1"
  param {
    lr_mult: 1
    decay_mult: 1
  }
  param {
    lr_mult: 2
    decay_mult: 0
  }
  convolution_param {
    num_output: 96
    kernel_size: 11
    stride: 4
    weight_filler {
      type: "gaussian"
      std: 0.01
    }
    bias_filler {
      type: "constant"
      value: 0
    }
  }
}
layer {
  name: "relu1"
  type: "ReLU"
  bottom: "conv1"
  top: "conv1"
}
layer {
  name: "norm1"
  type: "LRN"
  bottom: "conv1"
  top: "norm1"
  lrn_param {
    local_size: 5
    alpha: 0.0001
    beta: 0.75
  }
}
layer {
  name: "pool1"
  type: "Pooling"
  bottom: "norm1"
  top: "pool1"
  pooling_param {
    pool: MAX
    kernel_size: 3
    stride: 2
  }
}
layer {
  name: "conv2"
  type: "Convolution"
  bottom: "pool1"
  top: "conv2"
  param {
    lr_mult: 1
    decay_mult: 1
  }
  param {
    lr_mult: 2
    decay_mult: 0
  }
  convolution_param {
    num_output: 256
    pad: 2
    kernel_size: 5
    group: 2
    weight_filler {
      type: "gaussian"
      std: 0.01
    }
    bias_filler {
      type: "constant"
      value: 0.1
    }
  }
}
layer {
  name: "relu2"
  type: "ReLU"
  bottom: "conv2"
  top: "conv2"
}
layer {
  name: "norm2"
  type: "LRN"
  bottom: "conv2"
  top: "norm2"
  lrn_param {
    local_size: 5
    alpha: 0.0001
    beta: 0.75
  }
}
layer {
  name: "pool2"
  type: "Pooling"
  bottom: "norm2"
  top: "pool2"
  pooling_param {
    pool: MAX
    kernel_size: 3
    stride: 2
  }
}
layer {
  name: "conv3"
  type: "Convolution"
  bottom: "pool2"
  top: "conv3"
  param {
    lr_mult: 1
    decay_mult: 1
  }
  param {
    lr_mult: 2
    decay_mult: 0
  }
  convolution_param {
    num_output: 384
    pad: 1
    kernel_size: 3
    weight_filler {
      type: "gaussian"
      std: 0.01
    }
    bias_filler {
      type: "constant"
      value: 0
    }
  }
}
layer {
  name: "relu3"
  type: "ReLU"
  bottom: "conv3"
  top: "conv3"
}
layer {
  name: "conv4"
  type: "Convolution"
  bottom: "conv3"
  top: "conv4"
  param {
    lr_mult: 1
    decay_mult: 1
  }
  param {
    lr_mult: 2
    decay_mult: 0
  }
  convolution_param {
    num_output: 384
    pad: 1
    kernel_size: 3
    group: 2
    weight_filler {
      type: "gaussian"
      std: 0.01
    }
    bias_filler {
      type: "constant"
      value: 0.1
    }
  }
}
layer {
  name: "relu4"
  type: "ReLU"
  bottom: "conv4"
  top: "conv4"
}
layer {
  name: "conv5"
  type: "Convolution"
  bottom: "conv4"
  top: "conv5"
  param {
    lr_mult: 1
    decay_mult: 1
  }
  param {
    lr_mult: 2
    decay_mult: 0
  }
  convolution_param {
    num_output: 256
    pad: 1
    kernel_size: 3
    group: 2
    weight_filler {
      type: "gaussian"
      std: 0.01
    }
    bias_filler {
      type: "constant"
      value: 0.1
    }
  }
}
layer {
  name: "relu5"
  type: "ReLU"
  bottom: "conv5"
  top: "conv5"
}
layer {
  name: "spp"
  type: "SPP"
  bottom: "conv5"
  top: "spp"
  spp_param {
    pyramid_type: SPP_NET6
    pool: MAX
  }
}
layer {
  name: "fc6_spp"
  type: "InnerProduct"
  bottom: "spp"
  top: "fc6"
  param {
    lr_mult: 1
    decay_mult: 1
  }
  param {
    lr_mult: 2
    decay_mult: 0
  }
  inner_product_param {
    num_output: 4096
    weight_filler {
      type: "gaussian"
      std: 0.005
    }
    bias_filler {
      type: "constant"
      value: 0.1
    }
  }
}
layer {
  name: "relu6_spp"
  type: "ReLU"
  bottom: "fc6"
  top: "fc6"
}
layer {
  name: "drop6_spp"
  type: "Dropout"
  bottom: "fc6"
  top: "fc6"
  dropout_param {
    dropout_ratio: 0.5
  }
}
layer {
  name: "fc7_spp"
  type: "InnerProduct"
  bottom: "fc6"
  top: "fc7"
  param {
    lr_mult: 1
    decay_mult: 1
  }
  param {
    lr_mult: 2
    decay_mult: 0
  }
  inner_product_param {
    num_output: 4096
    weight_filler {
      type: "gaussian"
      std: 0.005
    }
    bias_filler {
      type: "constant"
      value: 0.1
    }
  }
}
layer {
  name: "relu7_spp"
  type: "ReLU"
  bottom: "fc7"
  top: "fc7"
}
layer {
  name: "drop7_spp"
  type: "Dropout"
  bottom: "fc7"
  top: "fc7"
  dropout_param {
    dropout_ratio: 0.5
  }
}
layer {
  name: "fc8_spp"
  type: "InnerProduct"
  bottom: "fc7"
  top: "fc8"
  param {
    lr_mult: 1
    decay_mult: 1
  }
  param {
    lr_mult: 2
    decay_mult: 0
  }
  inner_product_param {
    num_output: 1000
    weight_filler {
      type: "gaussian"
      std: 0.01
    }
    bias_filler {
      type: "constant"
      value: 0
    }
  }
}
layer {
  name: "accuracy_spp/top1"
  type: "Accuracy"
  bottom: "fc8"
  bottom: "label"
  top: "accuracy/top1"
  include {
    phase: TEST
  }
}
layer {
  name: "accuracy_spp/top5"
  type: "Accuracy"
  bottom: "fc8"
  bottom: "label"
  top: "accuracy/top5"
  include {
    phase: TEST
  }
  accuracy_param {
    top_k: 5
  }
}
layer {
  name: "loss_spp"
  type: "SoftmaxWithLoss"
  bottom: "fc8"
  bottom: "label"
  top: "loss"
}
I0926 00:36:17.129879  7201 layer_factory.hpp:76] Creating layer data
I0926 00:36:17.129966  7201 net.cpp:110] Creating Layer data
I0926 00:36:17.129974  7201 net.cpp:433] data -> data
I0926 00:36:17.129984  7201 net.cpp:433] data -> label
I0926 00:36:17.129992  7201 data_transformer.cpp:25] Loading mean file from: data/ilsvrc12/imagenet_mean.binaryproto
I0926 00:36:17.131178  7226 db_lmdb.cpp:23] Opened lmdb /media/christian/ImageNet/ImageNet/ilsvrc12_val_lmdb
I0926 00:36:17.132293  7201 data_layer.cpp:45] output data size: 50,3,224,224
I0926 00:36:17.195130  7201 net.cpp:155] Setting up data
I0926 00:36:17.195165  7201 net.cpp:163] Top shape: 50 3 224 224 (7526400)
I0926 00:36:17.195173  7201 net.cpp:163] Top shape: 50 (50)
I0926 00:36:17.195181  7201 layer_factory.hpp:76] Creating layer label_data_1_split
I0926 00:36:17.195197  7201 net.cpp:110] Creating Layer label_data_1_split
I0926 00:36:17.195202  7201 net.cpp:477] label_data_1_split <- label
I0926 00:36:17.195210  7201 net.cpp:433] label_data_1_split -> label_data_1_split_0
I0926 00:36:17.195222  7201 net.cpp:433] label_data_1_split -> label_data_1_split_1
I0926 00:36:17.195229  7201 net.cpp:433] label_data_1_split -> label_data_1_split_2
I0926 00:36:17.195271  7201 net.cpp:155] Setting up label_data_1_split
I0926 00:36:17.195277  7201 net.cpp:163] Top shape: 50 (50)
I0926 00:36:17.195282  7201 net.cpp:163] Top shape: 50 (50)
I0926 00:36:17.195287  7201 net.cpp:163] Top shape: 50 (50)
I0926 00:36:17.195291  7201 layer_factory.hpp:76] Creating layer conv1
I0926 00:36:17.195302  7201 net.cpp:110] Creating Layer conv1
I0926 00:36:17.195305  7201 net.cpp:477] conv1 <- data
I0926 00:36:17.195312  7201 net.cpp:433] conv1 -> conv1
I0926 00:36:17.200729  7201 net.cpp:155] Setting up conv1
I0926 00:36:17.200747  7201 net.cpp:163] Top shape: 50 96 54 54 (13996800)
I0926 00:36:17.200758  7201 layer_factory.hpp:76] Creating layer relu1
I0926 00:36:17.200767  7201 net.cpp:110] Creating Layer relu1
I0926 00:36:17.200772  7201 net.cpp:477] relu1 <- conv1
I0926 00:36:17.200778  7201 net.cpp:419] relu1 -> conv1 (in-place)
I0926 00:36:17.201014  7201 net.cpp:155] Setting up relu1
I0926 00:36:17.201026  7201 net.cpp:163] Top shape: 50 96 54 54 (13996800)
I0926 00:36:17.201032  7201 layer_factory.hpp:76] Creating layer norm1
I0926 00:36:17.201042  7201 net.cpp:110] Creating Layer norm1
I0926 00:36:17.201046  7201 net.cpp:477] norm1 <- conv1
I0926 00:36:17.201052  7201 net.cpp:433] norm1 -> norm1
I0926 00:36:17.201061  7201 net.cpp:155] Setting up norm1
I0926 00:36:17.201066  7201 net.cpp:163] Top shape: 50 96 54 54 (13996800)
I0926 00:36:17.201069  7201 layer_factory.hpp:76] Creating layer pool1
I0926 00:36:17.201076  7201 net.cpp:110] Creating Layer pool1
I0926 00:36:17.201081  7201 net.cpp:477] pool1 <- norm1
I0926 00:36:17.201086  7201 net.cpp:433] pool1 -> pool1
I0926 00:36:17.201153  7201 net.cpp:155] Setting up pool1
I0926 00:36:17.201160  7201 net.cpp:163] Top shape: 50 96 27 27 (3499200)
I0926 00:36:17.201164  7201 layer_factory.hpp:76] Creating layer conv2
I0926 00:36:17.201174  7201 net.cpp:110] Creating Layer conv2
I0926 00:36:17.201177  7201 net.cpp:477] conv2 <- pool1
I0926 00:36:17.201184  7201 net.cpp:433] conv2 -> conv2
I0926 00:36:17.212272  7201 net.cpp:155] Setting up conv2
I0926 00:36:17.212327  7201 net.cpp:163] Top shape: 50 256 27 27 (9331200)
I0926 00:36:17.212353  7201 layer_factory.hpp:76] Creating layer relu2
I0926 00:36:17.212373  7201 net.cpp:110] Creating Layer relu2
I0926 00:36:17.212379  7201 net.cpp:477] relu2 <- conv2
I0926 00:36:17.212388  7201 net.cpp:419] relu2 -> conv2 (in-place)
I0926 00:36:17.212463  7201 net.cpp:155] Setting up relu2
I0926 00:36:17.212471  7201 net.cpp:163] Top shape: 50 256 27 27 (9331200)
I0926 00:36:17.212476  7201 layer_factory.hpp:76] Creating layer norm2
I0926 00:36:17.212486  7201 net.cpp:110] Creating Layer norm2
I0926 00:36:17.212489  7201 net.cpp:477] norm2 <- conv2
I0926 00:36:17.212496  7201 net.cpp:433] norm2 -> norm2
I0926 00:36:17.212532  7201 net.cpp:155] Setting up norm2
I0926 00:36:17.212540  7201 net.cpp:163] Top shape: 50 256 27 27 (9331200)
I0926 00:36:17.212544  7201 layer_factory.hpp:76] Creating layer pool2
I0926 00:36:17.212554  7201 net.cpp:110] Creating Layer pool2
I0926 00:36:17.212558  7201 net.cpp:477] pool2 <- norm2
I0926 00:36:17.212564  7201 net.cpp:433] pool2 -> pool2
I0926 00:36:17.212759  7201 net.cpp:155] Setting up pool2
I0926 00:36:17.212771  7201 net.cpp:163] Top shape: 50 256 13 13 (2163200)
I0926 00:36:17.212776  7201 layer_factory.hpp:76] Creating layer conv3
I0926 00:36:17.212786  7201 net.cpp:110] Creating Layer conv3
I0926 00:36:17.212790  7201 net.cpp:477] conv3 <- pool2
I0926 00:36:17.212797  7201 net.cpp:433] conv3 -> conv3
I0926 00:36:17.242992  7201 net.cpp:155] Setting up conv3
I0926 00:36:17.243033  7201 net.cpp:163] Top shape: 50 384 13 13 (3244800)
I0926 00:36:17.243053  7201 layer_factory.hpp:76] Creating layer relu3
I0926 00:36:17.243068  7201 net.cpp:110] Creating Layer relu3
I0926 00:36:17.243074  7201 net.cpp:477] relu3 <- conv3
I0926 00:36:17.243083  7201 net.cpp:419] relu3 -> conv3 (in-place)
I0926 00:36:17.243155  7201 net.cpp:155] Setting up relu3
I0926 00:36:17.243163  7201 net.cpp:163] Top shape: 50 384 13 13 (3244800)
I0926 00:36:17.243238  7201 layer_factory.hpp:76] Creating layer conv4
I0926 00:36:17.243252  7201 net.cpp:110] Creating Layer conv4
I0926 00:36:17.243257  7201 net.cpp:477] conv4 <- conv3
I0926 00:36:17.243263  7201 net.cpp:433] conv4 -> conv4
I0926 00:36:17.266366  7201 net.cpp:155] Setting up conv4
I0926 00:36:17.266432  7201 net.cpp:163] Top shape: 50 384 13 13 (3244800)
I0926 00:36:17.266448  7201 layer_factory.hpp:76] Creating layer relu4
I0926 00:36:17.266465  7201 net.cpp:110] Creating Layer relu4
I0926 00:36:17.266471  7201 net.cpp:477] relu4 <- conv4
I0926 00:36:17.266481  7201 net.cpp:419] relu4 -> conv4 (in-place)
I0926 00:36:17.266557  7201 net.cpp:155] Setting up relu4
I0926 00:36:17.266564  7201 net.cpp:163] Top shape: 50 384 13 13 (3244800)
I0926 00:36:17.266569  7201 layer_factory.hpp:76] Creating layer conv5
I0926 00:36:17.266579  7201 net.cpp:110] Creating Layer conv5
I0926 00:36:17.266583  7201 net.cpp:477] conv5 <- conv4
I0926 00:36:17.266589  7201 net.cpp:433] conv5 -> conv5
I0926 00:36:17.281883  7201 net.cpp:155] Setting up conv5
I0926 00:36:17.281915  7201 net.cpp:163] Top shape: 50 256 13 13 (2163200)
I0926 00:36:17.281931  7201 layer_factory.hpp:76] Creating layer relu5
I0926 00:36:17.281942  7201 net.cpp:110] Creating Layer relu5
I0926 00:36:17.281947  7201 net.cpp:477] relu5 <- conv5
I0926 00:36:17.281955  7201 net.cpp:419] relu5 -> conv5 (in-place)
I0926 00:36:17.282024  7201 net.cpp:155] Setting up relu5
I0926 00:36:17.282032  7201 net.cpp:163] Top shape: 50 256 13 13 (2163200)
I0926 00:36:17.282037  7201 layer_factory.hpp:76] Creating layer spp
I0926 00:36:17.282047  7201 net.cpp:110] Creating Layer spp
I0926 00:36:17.282050  7201 net.cpp:477] spp <- conv5
I0926 00:36:17.282057  7201 net.cpp:433] spp -> spp
I0926 00:36:17.282100  7201 net.cpp:155] Setting up spp
I0926 00:36:17.282106  7201 net.cpp:163] Top shape: 50 12800 (640000)
I0926 00:36:17.282110  7201 layer_factory.hpp:76] Creating layer fc6_spp
I0926 00:36:17.282119  7201 net.cpp:110] Creating Layer fc6_spp
I0926 00:36:17.282122  7201 net.cpp:477] fc6_spp <- spp
I0926 00:36:17.282129  7201 net.cpp:433] fc6_spp -> fc6
I0926 00:36:18.907229  7201 net.cpp:155] Setting up fc6_spp
I0926 00:36:18.907269  7201 net.cpp:163] Top shape: 50 4096 (204800)
I0926 00:36:18.907280  7201 layer_factory.hpp:76] Creating layer relu6_spp
I0926 00:36:18.907292  7201 net.cpp:110] Creating Layer relu6_spp
I0926 00:36:18.907299  7201 net.cpp:477] relu6_spp <- fc6
I0926 00:36:18.907305  7201 net.cpp:419] relu6_spp -> fc6 (in-place)
I0926 00:36:18.907614  7201 net.cpp:155] Setting up relu6_spp
I0926 00:36:18.907624  7201 net.cpp:163] Top shape: 50 4096 (204800)
I0926 00:36:18.907629  7201 layer_factory.hpp:76] Creating layer drop6_spp
I0926 00:36:18.907637  7201 net.cpp:110] Creating Layer drop6_spp
I0926 00:36:18.907641  7201 net.cpp:477] drop6_spp <- fc6
I0926 00:36:18.907646  7201 net.cpp:419] drop6_spp -> fc6 (in-place)
I0926 00:36:18.907655  7201 net.cpp:155] Setting up drop6_spp
I0926 00:36:18.907660  7201 net.cpp:163] Top shape: 50 4096 (204800)
I0926 00:36:18.907663  7201 layer_factory.hpp:76] Creating layer fc7_spp
I0926 00:36:18.907672  7201 net.cpp:110] Creating Layer fc7_spp
I0926 00:36:18.907675  7201 net.cpp:477] fc7_spp <- fc6
I0926 00:36:18.907681  7201 net.cpp:433] fc7_spp -> fc7
I0926 00:36:19.430027  7201 net.cpp:155] Setting up fc7_spp
I0926 00:36:19.430065  7201 net.cpp:163] Top shape: 50 4096 (204800)
I0926 00:36:19.430078  7201 layer_factory.hpp:76] Creating layer relu7_spp
I0926 00:36:19.430089  7201 net.cpp:110] Creating Layer relu7_spp
I0926 00:36:19.430095  7201 net.cpp:477] relu7_spp <- fc7
I0926 00:36:19.430102  7201 net.cpp:419] relu7_spp -> fc7 (in-place)
I0926 00:36:19.430199  7201 net.cpp:155] Setting up relu7_spp
I0926 00:36:19.430207  7201 net.cpp:163] Top shape: 50 4096 (204800)
I0926 00:36:19.430212  7201 layer_factory.hpp:76] Creating layer drop7_spp
I0926 00:36:19.430220  7201 net.cpp:110] Creating Layer drop7_spp
I0926 00:36:19.430224  7201 net.cpp:477] drop7_spp <- fc7
I0926 00:36:19.430229  7201 net.cpp:419] drop7_spp -> fc7 (in-place)
I0926 00:36:19.430271  7201 net.cpp:155] Setting up drop7_spp
I0926 00:36:19.430277  7201 net.cpp:163] Top shape: 50 4096 (204800)
I0926 00:36:19.430281  7201 layer_factory.hpp:76] Creating layer fc8_spp
I0926 00:36:19.430289  7201 net.cpp:110] Creating Layer fc8_spp
I0926 00:36:19.430294  7201 net.cpp:477] fc8_spp <- fc7
I0926 00:36:19.430299  7201 net.cpp:433] fc8_spp -> fc8
I0926 00:36:19.558099  7201 net.cpp:155] Setting up fc8_spp
I0926 00:36:19.558138  7201 net.cpp:163] Top shape: 50 1000 (50000)
I0926 00:36:19.558151  7201 layer_factory.hpp:76] Creating layer fc8_fc8_spp_0_split
I0926 00:36:19.558162  7201 net.cpp:110] Creating Layer fc8_fc8_spp_0_split
I0926 00:36:19.558168  7201 net.cpp:477] fc8_fc8_spp_0_split <- fc8
I0926 00:36:19.558177  7201 net.cpp:433] fc8_fc8_spp_0_split -> fc8_fc8_spp_0_split_0
I0926 00:36:19.558189  7201 net.cpp:433] fc8_fc8_spp_0_split -> fc8_fc8_spp_0_split_1
I0926 00:36:19.558195  7201 net.cpp:433] fc8_fc8_spp_0_split -> fc8_fc8_spp_0_split_2
I0926 00:36:19.558204  7201 net.cpp:155] Setting up fc8_fc8_spp_0_split
I0926 00:36:19.558209  7201 net.cpp:163] Top shape: 50 1000 (50000)
I0926 00:36:19.558214  7201 net.cpp:163] Top shape: 50 1000 (50000)
I0926 00:36:19.558218  7201 net.cpp:163] Top shape: 50 1000 (50000)
I0926 00:36:19.558223  7201 layer_factory.hpp:76] Creating layer accuracy_spp/top1
I0926 00:36:19.558229  7201 net.cpp:110] Creating Layer accuracy_spp/top1
I0926 00:36:19.558233  7201 net.cpp:477] accuracy_spp/top1 <- fc8_fc8_spp_0_split_0
I0926 00:36:19.558238  7201 net.cpp:477] accuracy_spp/top1 <- label_data_1_split_0
I0926 00:36:19.558243  7201 net.cpp:433] accuracy_spp/top1 -> accuracy/top1
…
